model.pth (torch, 758020 bytes, 11 tensors)

weight f4 [1866, 8]
-0.8194426 -0.2908927 -0.3285601 1.2234213 0.22857466 0.14794238 1.1662916 -0.83685017
-1.2447814 -0.40690774 1.184869 0.6521327 -0.65754575 -0.55898845 -0.45424634 -0.93682086
-0.21290517 -0.3989019 0.091381125 0.27870932 -0.46480832 2.031609 -0.3332779 1.5224708
1.5634204 -2.9011712 1.4683192 -2.5745873 -3.825604 -0.38001445 -0.7413431 3.3712356
-3.0583134 0.34118932 -1.9993947 1.6340075 0.22989321 -0.93837756 -1.127192 -1.7373899
1.4265125 0.62301093 -1.7487667 -1.4431324 -0.30387563 0.2649449 0.9318387 0.49571854
-0.18492128 0.49190038 -0.24330522 -0.7111653 0.1195494 -0.048701204 -1.2013282 -0.78630924
-0.32919058 0.6926952 2.5216572 0.8072313 -0.64448327 -0.42244345 0.9809791 -1.8702744
-0.36731365 0.36549097 -0.5470217 0.61911976 -2.2688248 -0.021987716 0.83699393 -0.03331501
0.25137413 0.99400777 0.91388726 0.29052395 1.1517144 0.31385258 -0.8908824 1.4378688
0.37364903 -0.92117774 2.5156388 -0.8428339 -0.8610575 -0.5985053 0.65135837 0.72482145
-0.43762264 0.12189071 -1.777368 -0.52670634 -0.62591696 0.86193854 0.79343486 0.17033252
0.7426917 -1.2485863 0.85259426 -0.2658271 -0.054156367 0.8630635 -0.7639974 4.4415846
-0.04430476 -0.20315659 -0.8420955 -1.2728906 1.307405 1.3760296 -1.7343488 1.3747708
-0.84325844 -0.24423824 0.09639509 -0.3842724 0.56487286 1.062826 -0.10549941 0.75815535
0.44121432 2.1550152 -0.74375117 0.30442777 0.638407 -2.7907112 -1.8900397 -0.05648805
-0.06432044 1.1174215 -0.41811365 -0.13035351 -1.344463 -0.44053298 -0.3720497 -0.7763521
0.2153877 1.169453 -0.053013343 -0.45864138 1.4282429 -0.38529164 -0.8139311 -0.124943845
-0.9149307 -0.9510111 0.23606062 -0.72382486 0.96375155 -0.0075575933 -0.6070026 -1.6372072
0.29601094 0.37972522 0.20498484 -0.88140565 0.20546204 -0.8160346 0.26500654 1.037108
1.1856269 1.4593095 0.17214221 -0.22490357 0.07012274 0.0694333 1.2615427 1.5970342
1.1948457 -0.25704992 0.9519129 0.0029376613 -0.33300126 0.4636616 -1.9805402 -0.8772235
-2.2878354 1.7082661 -1.5327278 0.6306139 -3.2076526 0.25420362 2.1476536 -0.13459793
2.989374 -0.70770735 1.0561194 1.3813498 0.36815774 -0.38484114 -1.1171724 3.2017193
-0.3890517 -1.4324205 0.32649195 3.9536195 0.58705646 -0.50887287 0.26729214 -1.4553752
0.55002904 -1.7320353 1.0511425 -0.33544168 0.11271588 0.81184053 2.2900684 -0.62541074
1.4971068 0.4445405 1.2472553 3.570515 0.6756764 -0.537422 -1.4802994 -0.17378503
0.5980848 1.0771087 -1.3972291 -0.123233974 1.036727 -2.067245 2.2756588 -1.2808651
1.8438547 -0.37908715 -1.3312125 -0.10645289 0.03712882 0.06548884 0.4237251 -1.724935
0.5505053 0.8024562 1.752762 1.0521753 -2.7396576 -0.30953512 -1.8995345 -0.8288205
0.20892805 0.19302468 0.86155295 -1.6160876 1.3452904 -0.56684095 0.18308206 0.0008120883
-0.9137078 -0.49571437 1.0022 -0.9178273 0.21771356 -0.16298093 0.45731893 0.12887932
00000000: fdc6 51bf e3ef 94be 0839 a8be 1299 9c3f
00000010: 7a0f 6a3e 357e 173e 0b49 953f d03b 56bf
00000020: ff54 9fbf 3656 d0be caa9 973f 2bf2 263f
00000030: eb54 28bf de19 0fbf fa92 e8be 7ed3 6fbf
00000040: d003 5abe df3c ccbe 0726 bb3d fdb2 8e3e
00000050: 5bfb edbe e205 0240 67a3 aabe 53e0 c23f
00000060: 291e c83f caac 39c0 e2f1 bb3f 0ac6 24c0
00000070: b2d6 74c0 4191 c2be a9c8 3dbf 53c2 5740
00000080: 68bb 43c0 5eb0 ae3e 2aec ffbf 2827 d13f
00000090: 2069 6b3e 8339 70bf d447 90bf cb62 debf
000000a0: f697 b63f a57d 1f3f 96d7 dfbf 90b8 b8bf
000000b0: 9695 9bbe dca6 873e fb8c 6e3f d2ce fd3e
000000c0: 015c 3dbe 5eda fb3e 0125 79be ee0e 36bf
000000d0: 51d6 f43d ea7a 47bd 1fc5 99bf 904b 49bf
000000e0: ab8b a8be 7954 313f d562 2140 b6a6 4e3f
000000f0: dbfc 24bf 824a d8be 7221 7b3f 2765 efbf
00000100: 8910 bcbe a221 bb3e 9d09 0cbf a27e 1e3f
00000110: 6d34 11c0 951f b4bc 3c45 563f 5275 08bd
00000120: 1cb4 803e 4b77 7e3f 84f4 693f 8ebf 943e
00000130: 616b 933f 49b1 a03e de10 64bf 160c b83f
00000140: ed4e bf3e 4ed2 6bbf 3a00 2140 f6c3 57bf
00000150: 446e 5cbf a537 19bf 6cbf 263f e68d 393f
00000160: 1310 e0be d6a1 f93d cb80 e3bf 3ad6 06bf
00000170: 183c 20bf 01a8 5c3f 8c1e 4b3f a66b 2e3e
00000180: 0b21 3e3f add1 9fbf 9e43 5a3f 7d1a 88be
00000190: 11d3 5dbd bbf1 5c3f 5595 43bf 7621 8e40
000001a0: e878 35bd 4808 50be 9293 57bf 14ee a2bf
000001b0: 0c59 a73f bd21 b03f 24ff ddbf 7df8 af3f
000001c0: c9df 57bf 9719 7abe ca6a c53d 5abf c4be
000001d0: 829b 103f af0a 883f 1310 d8bd 7816 423f
000001e0: d8e6 e13e c5eb 0940 7a66 3ebf f5dd 9b3e
000001f0: a46e 233f 039b 32c0 d2ec f1bf 0360 67bd
00000200: 6fba 83bd ab07 8f3f fe12 d6be 647b 05be
00000210: 5d17 acbf 8a8d e1be 4c7d bebe 03bf 46bf
00000220: 988e 5c3e a3b0 953f 8524 59bd 0bd3 eabe
00000230: aad0 b63f f244 c5be ca5d 50bf 8fe2 ffbd
00000240: e638 6abf 7775 73bf e0b9 713e 964c 39bf
00000250: 6cb8 763f b0a5 f7bb 8664 1bbf 0190 d1bf
00000260: bf8e 973e 586b c23e 8ce7 513e cda3 61bf
00000270: a464 523e a5e7 50bf f0ae 873e f4bf 843f
00000280: 9fc2 973f a7ca ba3f 0c46 303e 1f4d 66be
00000290: 839c 8f3d 0c33 8e3d 3b7a a13f 9e6b cc3f
000002a0: b4f0 983f 0c9c 83be 90b0 733f c785 403b
000002b0: 247f aabe 0e65 ed3e 5782 fdbf b891 60bf
000002c0: e56b 12c0 77a8 da3f 6d30 c4bf ea6f 213f
000002d0: 2e4a 4dc0 fa26 823e 2873 0940 0ad4 09be
000002e0: e751 3f40 4f2c 35bf ec2e 873f 12d0 b03f
000002f0: 2c7f bc3e e609 c5be 81ff 8ebf f8e8 4c40
00000300: c931 c7be 8e59 b7bf f429 a73e 1a08 7d40
00000310: 5549 163f 7e45 02bf 84da 883e bc49 babf
00000320: b4ce 0c3f 55b3 ddbf d68b 863f 03bf abbe
00000330: 95d7 e63d c8d4 4f3f 7b90 1240 eb1a 20bf
00000340: 32a1 bf3f d09a e33e 10a6 9f3f 5183 6440
00000350: 21f9 2c3f 7d94 09bf 737a bdbf b4f4 31be
00000360: 161c 193f b3de 893f 67d8 b2bf 1862 fcbd
00000370: 78b3 843f be4d 04c0 65a4 1140 63f3 a3bf
00000380: 6e03 ec3f b617 c2be 2c65 aabf f903 dabd
00000390: 6414 183d 031f 863d 7ff2 d83e acca dcbf
000003a0: eaed 0c3f c56d 4d3f 815a e03f aead 863f
000003b0: 8d56 2fc0 637b 9ebe f223 f3bf 952d 54bf
000003c0: 3cf1 553e 43a8 453e bc8e 5c3f f5db cebf
000003d0: 7a32 ac3f 7d1c 11bf dd79 3b3e 53e2 543a
000003e0: c1e8 69bf 46ce fdbe 1748 803f bbf6 6abf
000003f0: 4ef0 5e3e 79e4 26be b525 ea3e f1f8 033e

weight_ih_l0 f4 [256, 8]
-0.7427386 -0.4151689 0.022377927 -0.7451543 0.13567829 0.60093224 -0.6356814 0.7380803
-0.9039156 0.6522291 -0.28621995 -0.1058677 -0.62485605 0.15624836 0.29249194 -0.61867064
-0.9587572 -0.56915236 -0.67324173 -0.08731798 0.27793932 -0.053952552 1.0906429 0.6155217
0.822696 0.72343713 -0.030243397 0.35819003 0.20228276 0.38408086 -0.18560162 0.40893266
0.13496055 -0.09674376 -1.1653229 0.14753522 -1.1161399 -0.15536301 -0.057391174 0.15643176
-1.0924513 -0.74022436 0.44147202 -0.018463638 0.58016807 -0.11718791 -0.04713889 -1.4781456
-0.8196123 0.56094015 -1.0214847 -0.40875858 -0.85145295 0.03587978 0.8116306 -1.0171354
-0.021382136 0.46098977 -0.97469765 0.9878986 -0.5675433 0.15037158 0.7842155 0.004728505
-0.14285652 0.21836163 0.03774209 0.18815081 0.5456322 -1.1827192 0.55137676 -0.9174752
0.36212 -0.0861688 -0.56061965 -0.21518803 -0.3734226 -0.8693393 -0.25324726 -0.73515886
-0.6856245 -0.2983744 -0.92140746 -0.50534344 0.28623635 -0.86714566 0.37898725 -0.38458303
-1.5345334 0.20184308 -0.40559822 -0.09205275 1.635347 -0.5333019 0.9129032 0.23863637
0.4004492 1.5213087 -0.059745137 -0.03627851 0.15635118 -0.4198109 0.23057441 -0.120312944
-1.133077 0.92703646 0.41377726 0.29687196 -0.09517331 -0.042423803 -0.019528775 0.5949574
-1.497971 -0.33135435 1.0424066 0.11366557 -0.58896476 -0.72974026 -0.5566428 -0.6841602
0.66869557 0.8771809 -1.1334877 -0.29539156 -0.07146941 -0.08025695 0.3549484 0.17326966
0.17434156 0.50257766 -0.16363306 0.8355463 0.018198358 -0.11826505 0.23907106 0.042355206
-0.46932405 0.26998156 -0.05465066 -0.96762425 -1.739822 0.81924134 1.9539086 -1.2754915
-0.07627791 -0.08278557 -0.07643478 0.29333133 -0.22782466 0.051785544 0.016337242 -0.113437414
0.24761645 -0.051173616 -0.33253995 -0.52581435 -0.46463513 -0.50158286 0.6790491 -0.74270546
-0.88577014 0.386065 0.4488016 -0.05172979 -0.7819267 0.16583665 -0.11246497 -0.9303547
0.32801488 -0.027529351 -0.12311371 0.48788854 -0.0050867116 0.7654685 0.13752581 -0.3086631
-0.3346612 0.52957237 -0.21666755 -0.16319224 -0.29849875 0.49707663 -0.34961975 0.12983583
-0.76449096 0.8514004 -0.6785057 0.7106426 -0.227982 -0.25942722 0.47704548 -0.06038243
-0.19697441 -0.8734666 -0.30087763 0.1131409 0.6694776 -0.21506704 0.3296489 -0.6127408
-0.51126117 0.33647838 0.092192 0.54436946 -1.1311953 -0.09857117 0.8762741 0.13186309
-0.12995596 0.06412091 -0.38170797 0.38770223 -0.2258742 -0.57272977 0.47525263 -0.5009878
-1.5199232 0.03393929 -1.1318672 -1.004951 0.520659 0.390354 1.8044605 0.4234945
0.42310876 -1.3241564 0.54526395 0.17252427 -0.39989996 -1.0114607 0.8636005 -0.41679823
0.08732781 0.4605407 0.17549586 -0.6187172 -0.4373336 0.8422018 0.53972894 0.015875006
0.07047939 0.5878713 -0.15639237 0.25171968 -0.2795145 0.18785395 1.1597363 -0.18313056
0.52345765 1.1772557 -1.0720748 0.50071335 -0.88698834 -1.1799303 -0.08332326 0.33867663
00000000: 1e24 3ebf 0591 d4be ea51 b73c 6fc2 3ebf
00000010: 40ef 0a3e b2d6 193f 04bc 22bf d5f2 3c3f
00000020: 0367 67bf 7cf8 263f 6c8b 92be 2ad1 d8bd
00000030: 91f6 1fbf 92ff 1f3e 81c1 953e 3361 1ebf
00000040: 1d71 75bf f8b3 11bf 9259 2cbf c5d3 b2bd
00000050: 104e 8e3e 5afd 5cbd 309a 8b3f d592 1d3f
00000060: 349c 523f 2d33 393f 00c1 f7bc af64 b73e
00000070: 3623 4f3e 3fa6 c43e 5a0e 3ebe 9f5f d13e
00000080: 1933 0a3e 9821 c6bd 4d29 95bf 7913 173e
00000090: acdd 8ebf 7b17 1fbe 0213 6bbd a62f 203e
000000a0: 72d5 8bbf 587f 3dbf 9f08 e23e 0e41 97bc
000000b0: e585 143f 3700 f0bd b514 41bd e033 bdbf
000000c0: 1dd2 51bf c699 0f3f 03c0 82bf ce48 d1be
000000d0: d2f8 59bf adf6 123d 06c7 4f3f 7e31 82bf
000000e0: 9729 afbc da06 ec3e c985 79bf ece6 7c3f
000000f0: 854a 11bf 02fb 193e 59c2 483f 93f1 9a3b
00000100: fb48 12be 319a 5f3e 7397 1a3d 9baa 403e
00000110: 8dae 0b3f 5863 97bf 0727 0d3f a8df 6abf
00000120: cb67 b93e 4579 b0bd c584 0fbf 405a 5cbe
00000130: 3f31 bfbe 058d 5ebf a0a9 81be 5f33 3cbf
00000140: 1685 2fbf 88c4 98be 5ce1 6bbf 305e 01bf
00000150: 928d 923e 42fd 5dbf 9e0a c23e 11e8 c4be
00000160: 976b c4bf f4af 4e3e 92aa cfbe 2786 bcbd
00000170: 0d53 d13f 7986 08bf 06b4 693f 185d 743e
00000180: ad07 cd3e 3eba c23f 51b7 74bd c698 14bd
00000190: 861a 203e 74f1 d6be b31b 6c3e a266 f6bd
000001a0: ab08 91bf 4352 6d3f 9dda d33e 9aff 973e
000001b0: 39ea c2bd 95c4 2dbd cffa 9fbc 214f 183f
000001c0: 84bd bfbf 47a7 a9be 946d 853f 7fc9 e83d
000001d0: 65c6 16bf 42d0 3abf 2480 0ebf 1f25 2fbf
000001e0: a22f 2b3f ed8e 603f 2016 91bf 903d 97be
000001f0: 8e5e 92bd c15d a4bd ccbb b53e 9a6d 313e
00000200: 9886 323e eea8 003f 6d8f 27be 5de6 553f
00000210: b914 953c f234 f2bd 0bcf 743e a77c 2d3d
00000220: 3e4b f0be 063b 8a3e 5fd9 5fbd 39b6 77bf
00000230: 7db2 debf cdb9 513f ad19 fa3f 4e43 a3bf
00000240: 9837 9cbd 7b8b a9bd d789 9cbd 862f 963e
00000250: de4a 69be 141d 543d aed5 853c e051 e8bd
00000260: 2b8f 7d3e 6d9b 51bd ad42 aabe c59b 06bf
00000270: a8e4 edbe bc67 00bf 29d6 2d3f f221 3ebf
00000280: d5c1 62bf 50aa c53e 53c9 e53e 9ee2 53bd
00000290: 592c 48bf 15d1 293e 0954 e6bd ba2b 6ebf
000002a0: 91f1 a73e 3c85 e1bc 0a23 fcbd 87cc f93e
000002b0: 6eae a6bb bef5 433f 91d3 0c3e 1709 9ebe
000002c0: b658 abbe 0e92 073f 19de 5dbe de1b 27be
000002d0: d4d4 98be d480 fe3e 5c01 b3be aff3 043e
000002e0: aeb5 43bf 60f5 593f 8db2 2dbf acec 353f
000002f0: 1d74 69be a5d3 84be 4e3f f43e 9153 77bd
00000300: a9b3 49be 829b 5fbf a20c 9abe 6bb6 e73d
00000310: e262 2b3f 893a 5cbe bec7 a83e 95dc 1cbf
00000320: 03e2 02bf e546 ac3e 29cf bc3d cc5b 0b3f
00000330: 02cb 90bf aedf c9bd 8053 603f 1e07 073e
00000340: 2d13 05be d351 833d 3a6f c3be e880 c63e
00000350: 914b 67be 6b9e 12bf 5054 f33e bd40 00bf
00000360: d88c c2bf ed03 0b3d 06e1 90bf 3ca2 80bf
00000370: e949 053f 7bdc c73e 90f8 e63f 45d4 d83e
00000380: b6a1 d83e f57d a9bf 6b96 0b3f 34aa 303e
00000390: b0bf ccbe 8b77 81bf ec14 5d3f 9466 d5be
000003a0: ecd8 b23d fecb eb3e 30b5 333e 4064 1ebf
000003b0: 31ea dfbe 8a9a 573f ad2b 0a3f 4d0c 823c
000003c0: 8057 903d bc7e 163f 5225 20be 67e1 803e
000003d0: 861c 8fbe c95c 403e 3d72 943f 9486 3bbe
000003e0: 5201 063f 51b0 963f bf39 89bf c02e 003f
000003f0: ab11 63bf f507 97bf 63a5 aabd 0667 ad3e

weight_hh_l0 f4 [256, 64]
0.069917575 0.57617766 1.4199007 -0.3684833 -0.4132024 0.5727025 0.17014155 1.0669295
-0.22062391 -0.21824846 -0.13562225 -0.8109521 0.45104396 0.13250959 -0.4113312 -0.8958642
0.060266312 0.85456944 -0.07950468 -0.016865702 -0.162545 -0.933442 0.4890255 -0.66472894
1.0091631 -0.69046426 0.61426723 -0.5826539 -0.14591978 -0.025456795 -0.2955001 0.3169283
-0.06851812 0.25648996 0.808951 -1.0574464 -0.17140363 -0.06473056 -0.00049696205 -0.50498515
-0.8782371 0.31603083 -0.62913096 -0.7205119 -1.2867941 0.013041015 0.61685044 -0.5822417
-0.7399114 0.036769766 0.27940124 -0.8290894 0.002614616 0.26755095 -0.30491805 0.13598938
-0.15460934 0.9131255 0.42485762 0.43141052 -0.35905418 0.09917892 0.6446336 -0.18940517
-1.0345471 0.14870472 0.89958936 0.509838 0.05853039 0.054677248 0.6767388 -0.16131558
-1.1111305 0.039714377 0.43378595 -0.048521847 -0.9127127 0.57756555 0.08648877 0.24145502
0.3764479 0.20869017 0.0655479 0.55177826 0.087837726 0.11642678 -0.841855 0.166393
0.6842837 -0.48774186 0.3354157 0.14015828 -0.6459446 -0.03897203 0.26047885 0.0760468
-0.7655793 1.8955771 0.62729245 0.03320317 -0.020099629 -0.1232089 -0.24730907 -0.2313912
-1.0612155 -0.24221535 -1.1594617 -0.026432157 -0.045265954 0.15597112 0.014158872 0.34585166
-0.49038407 -0.0091492655 0.8749442 -0.39120963 -0.19736521 -0.10018703 -0.1975672 -0.44165316
-0.45223626 0.5758832 -0.2225253 -0.49859193 0.2858903 0.10453125 0.04580939 -0.7073221
0.1163071 -0.21543911 -0.29662678 -0.36704877 0.8904947 0.6854537 -0.6036744 0.5215417
-0.0066732224 -0.47670367 -0.067889355 -0.23044081 0.7384281 0.28256604 -0.42573866 0.7277918
0.17466544 0.10866663 0.9654695 0.4491889 -0.33823857 -0.13584065 0.37745115 -0.17252263
-0.7749783 0.5892432 -0.3962299 -0.023865327 -0.29998854 -0.8737792 0.886176 -0.17032425
-0.31845737 0.19368663 -0.0376838 0.074255526 -0.43808824 0.57534564 -0.25038454 0.37722078
-0.15722817 0.008961478 -0.30762562 -0.15956086 0.049420353 -1.1341882 0.2852105 -1.2109271
-0.25146183 0.41008285 0.9081607 0.23539107 -1.0144824 0.561908 0.8824371 0.49453038
0.38571492 -0.04005325 0.33179605 0.4299505 0.09982313 1.7711023 -0.37765417 0.7439277
-0.04982619 -0.012557613 0.85923976 0.15130614 -0.45503625 0.8577056 -0.107407406 1.0341597
-0.079959564 0.90314895 0.6844643 0.080005385 -1.0141108 -0.042086028 1.2934488 -1.5885735
-0.41255763 -0.060491737 0.74060744 0.31935152 -0.2716897 -0.03681164 0.7141787 -0.015298784
0.5222701 0.11092071 0.8632665 0.13274191 -0.3208212 -0.5874154 0.43244767 0.95190006
0.42599377 0.033597685 0.78948224 -1.3818341 -0.36165127 -0.57921964 -0.6748281 -1.7288812
-0.9456731 0.13442746 -0.39327493 -1.8962805 -0.036696203 -0.42046377 1.3441255 0.46825486
-0.15004154 -0.8695983 -0.12152768 -0.2416797 -0.14739063 0.48792505 -0.1419544 0.0006353209
-0.098016314 1.4469949 0.6124899 -0.1338683 -0.18648084 -0.28861815 1.0539916 -0.34729233
00000000: f230 8f3d 6180 133f 4ebf b53f d8a9 bcbe
00000010: 448f d3be a29c 123f 9639 2e3e 2591 883f
00000020: 3ceb 61be 867c 5fbe 8fe0 0abe 8f9a 4fbf
00000030: 3cef e63e 98b0 073e 019a d2be 5b57 65bf
00000040: cfd9 763d 10c5 5a3f 5ad3 a2bd f129 8abc
00000050: 3272 26be 0ef6 6ebf 8d61 fa3e ad2b 2abf
00000060: 422c 813f 44c2 30bf 9e40 1d3f ce28 15bf
00000070: ff6b 15be c58a d0bc ca4b 97be 6d44 a23e
00000080: 3a53 8cbd a752 833e 6a17 4f3f 675a 87bf
00000090: 6f84 2fbe 7591 84bd 8f46 02ba b546 01bf
000000a0: 26d4 60bf cbce a13e ba0e 21bf 7873 38bf
000000b0: abb5 a4bf fba9 553c e9e9 1d3f cb0d 15bf
000000c0: d56a 3dbf e59b 163d ae0d 8f3e 343f 54bf
000000d0: fa59 2b3b 70fc 883e 381e 9cbe cd40 0b3e
000000e0: e951 1ebe 98c2 693f f086 d93e d7e1 dc3e
000000f0: f3d5 b7be 511e cb3d b506 253f 6ef3 41be
00000100: 0a6c 84bf 0d46 183e 7d4b 663f be84 023f
00000110: 90bd 6f3d 40f5 5f3d c13e 2d3f e92f 25be
00000120: 8639 8ebf 8bab 223d 3119 de3e d8be 46bd
00000130: 8aa7 69bf 56db 133f 0621 b13d fc3f 773e
00000140: c7bd c03e e0b2 553e fa3d 863d 5741 0d3f
00000150: 44e4 b33d 2a71 ee3d cf83 57bf ed62 2a3e
00000160: 372d 2f3f 4db9 f9be 9bbb ab3e a785 0f3e
00000170: a05c 25bf 23a1 1fbd 7c5d 853e 6dbe 9b3d
00000180: 01fd 43bf 45a2 f23f 3d96 203f 0c00 083d
00000190: faa7 a4bc f354 fcbd 973e 7dbe d1f1 6cbe
000001a0: e9d5 87bf 4d07 78be 3e69 94bf 4088 d8bc
000001b0: cb68 39bd e5b6 1f3e 9dfa 673c 7813 b13e
000001c0: 9f13 fbbe cde6 15bc 58fc 5f3f a14c c8be
000001d0: 1b1a 4abe dc2e cdbd 0e4f 4abe 5d20 e2be
000001e0: 838b e7be 156d 133f acdd 63be 7147 ffbe
000001f0: 3760 923e 7b14 d63d a0a2 3b3d 1013 35bf
00000200: 6b32 ee3d 129c 5cbe 77df 97be d1ed bbbe
00000210: 76f7 633f e579 2f3f 688a 1abf c283 053f
00000220: 0cab dabb 8112 f4be 9309 8bbd adf8 6bbe
00000230: a009 3d3f 7fac 903e 6bfa d9be 9050 3a3f
00000240: 7fdb 323e 9c8c de3d 0229 773f 16fc e53e
00000250: 9b2d adbe d019 0bbe 4741 c13e c6a9 30be
00000260: fa64 46bf a4d8 163f a5de cabe 3881 c3bc
00000270: 1998 99be feaf 5fbf 6edc 623f 7b69 2ebe
00000280: d80c a3be ca55 463e 545a 1abd 4813 983d
00000290: 1a4d e0be da49 133f 6732 80be 1523 c13e
000002a0: 6c00 21be 2ad3 123c 1b81 9dbe ec63 23be
000002b0: ff6c 4a3d 142d 91bf 1c07 923e a9ff 9abf
000002c0: 9bbf 80be 61f6 d13e 387d 683f 5b0a 713e
000002d0: 8fda 81bf 34d9 0f3f 66e7 613f 1633 fd3e
000002e0: 6d7c c53e e00e 24bd 2ce1 a93e 7922 dc3e
000002f0: 1270 cc3d 7bb3 e23f e35b c1be 0c72 3e3f
00000300: 8c16 4cbd 72be 4dbc 23f7 5b3f ffef 1a3e
00000310: 83fa e8be 9892 5b3f 6af8 dbbd 585f 843f
00000320: d7c1 a3bd c534 673f 0d39 2f3f ddd9 a33d
00000330: 62ce 81bf 6662 2cbd bb8f a53f 6056 cbbf
00000340: c13a d3be 2fc6 77bd 7398 3d3f 0b82 a33e
00000350: ea1a 8bbe cdc7 16bd 6ad4 363f c0a7 7abc
00000360: 7eb3 053f 662a e33d 09ff 5c3f 7fed 073e
00000370: ad42 a4be db60 16bf c869 dd3e b9af 733f
00000380: db1b da3e ba9d 093d 821b 4a3f f1df b0bf
00000390: 5b2a b9be bd47 14bf 89c1 2cbf fb4b ddbf
000003a0: a217 72bf 5aa7 093e 555b c9be 52b9 f2bf
000003b0: c24e 16bd 0747 d7be 4e0c ac3f 1abf ef3e
000003c0: 7da4 19be ff9d 5ebf 81e3 f8bd e27a 77be
000003d0: 92ed 16be 50d1 f93e 7f5c 11be aa8b 263a
000003e0: c7bc c8bd 2137 b93f 23cc 1c3f c614 09be
000003f0: d5f4 3ebe c2c5 93be 32e9 863f 4dd0 b1be

bias_ih_l0 f4 [256]
-0.32110867 0.36271584 0.582417 -0.21065477 0.35567772 0.4894937 0.5794971 0.4924472
0.28107643 0.20088166 0.31078225 0.22566392 0.074767664 0.24432975 0.49262702 0.3675798
0.03418969 0.28144887 0.20399047 0.20413005 0.44995254 0.2732999 -0.062188018 0.3763391
0.19246268 0.5589895 0.36913 0.20069389 0.2988137 0.4538781 0.49237004 0.28941172
0.07551494 0.29274118 0.57586837 0.7258614 -0.2572773 0.35125965 0.35014144 0.18810846
0.42044827 0.5455322 0.045910064 0.25197017 0.1854051 0.47240266 0.3395884 0.40046194
0.25065362 0.4568029 0.41270602 0.39258665 0.24917826 0.26701385 0.5512162 0.56447035
0.26893237 0.3782804 0.16915038 -0.034489624 0.4861533 0.34147477 0.3588723 0.24580173
0.047975827 0.1606256 0.04099425 -0.16039963 -0.2016226 0.099994846 -0.24168293 -0.10628046
0.042954683 0.08535413 0.17261367 0.03067809 -0.18307182 0.074282914 -0.21051778 0.17678495
-0.017095886 -0.13151427 0.0579132 -0.009124156 0.21539497 0.024315722 -0.16988517 0.092479065
0.27166885 -0.009896498 0.29186422 0.06906364 0.31974173 -0.09923301 0.17233533 0.037063166
-0.11570541 0.1083022 0.17133251 0.17075837 0.09010724 0.1420052 0.008636517 -0.047971964
0.30098093 -0.06782794 -0.011426803 0.26355878 -0.0151547175 -0.021462414 -0.011191998 0.048707657
0.095260605 -0.032177046 0.17129195 0.034783367 0.07477633 0.16590208 -0.4388534 -0.0006139958
0.016670182 0.20462482 0.18389374 0.04086428 -0.16689575 0.14854911 0.11900998 0.018414658
-0.21516024 0.20839109 0.14307705 -0.020214796 -0.118918784 0.24328078 -0.04145628 0.21671532
-0.15888762 0.18770984 0.19752467 -0.31532192 -0.051185146 0.18114768 -0.029609853 -0.016136754
0.079770535 0.029072817 0.16291274 0.32058814 -0.26431277 -0.15150806 -0.06500792 -0.13293917
0.28518757 -0.17362876 0.25473085 -0.028493123 -0.4111396 0.22286187 0.2670989 0.10356796
-0.07280462 0.12878059 0.14917399 -0.31484157 -0.066610776 0.27124196 -0.25347775 -0.1461724
-0.39648044 0.11499289 -0.11154266 -0.25150183 -0.115249164 -0.109203026 0.2662798 0.035347875
-0.15171476 -0.2606314 0.024373412 -0.26572457 -0.09105222 -0.31484726 -0.16203831 0.19323133
-0.06649734 0.32269663 -0.28566763 -0.09765556 -0.21705842 0.28171152 0.37135577 -0.19003034
0.12149498 0.11460036 0.3460374 0.18222919 -0.119508326 0.16195378 0.38331497 0.5134828
0.1193846 0.19077581 0.23014784 0.31582335 0.22274184 0.2728714 0.2808935 0.15210629
0.09470309 0.39493132 0.39830264 0.15862179 0.21186663 -0.0462224 0.24015523 0.1965821
0.2001163 0.048992902 0.11776045 0.3658831 0.27680218 0.3176905 0.2694094 0.21627595
0.18895549 0.20787379 0.19206144 -0.089948066 0.27815077 0.22975409 0.22035354 0.29889512
0.006218119 0.26244855 0.2775603 0.2920184 0.19450346 0.28670678 0.13896643 0.37261838
0.3267443 0.16504271 0.049806964 0.064902335 0.14765511 0.0068419897 0.28860947 0.23705797
0.2119647 0.21316124 0.104410805 -0.03391702 -0.23481369 0.22464927 0.23056477 0.09151692
00000000: 5b68 a4be e4b5 b93e 4819 153f e2b5 57be
00000010: 641b b63e eb9e fa3e ec59 143f 0a22 fc3e
00000020: 40e9 8f3e ecb3 4d3e da1e 9f3e 7114 673e
00000030: ca1f 993d 9431 7a3e 9c39 fc3e 6b33 bc3e
00000040: 7d0a 0c3d 111a 903e e1e2 503e 7807 513e
00000050: 2e60 e63e f7ed 8b3e ddb8 7ebd 85af c03e
00000060: f014 453e f019 0f3f 9bfe bc3e b382 4d3e
00000070: 1cfe 983e b662 e83e ed17 fc3e c62d 943e
00000080: 94a7 9a3d 2ce2 953e 1c6c 133f 0dd2 393f
00000090: dab9 83be 4ed8 b33e bd45 b33e 819f 403e
000000a0: ff44 d73e 00a8 0b3f 310c 3c3d 3c02 813e
000000b0: d6da 3d3e c3de f13e 88de ad3e 5909 cd3e
000000c0: ac55 803e 12e2 e93e 344e d33e 1e01 c93e
000000d0: 9628 7f3e 0ab6 883e 811c 0d3f 2181 103f
000000e0: 81b1 893e f8ad c13e c235 2d3e fe44 0dbd
000000f0: 16e9 f83e c8d5 ae3e 1cbe b73e 73b3 7b3e
00000100: 4d82 443d 0a7b 243e 96e9 273d cd3f 24be
00000110: 2876 4ebe 19ca cc3d bb7b 77be 92a9 d9bd
00000120: 40f1 2f3d 25ce ae3d a3c1 303e 9e50 fb3c
00000130: 2e77 3bbe a421 983d f991 57be 1d07 353e
00000140: ac0c 8cbc adab 06be 6436 6d3d 7c7d 15bc
00000150: 8090 5c3e c431 c73c 61f6 2dbe aa65 bd3d
00000160: 2e18 8b3e ec24 22bc 3a6f 953e 3d71 8d3d
00000170: 30b5 a33e ad3a cbbd ac78 303e 8ccf 173d
00000180: f5f6 ecbd 8bcd dd3d ca71 2f3e 48db 2e3e
00000190: 258a b83d d069 113e 2e80 0d3c 407e 44bd
000001a0: 2c1a 9a3e 60e9 8abd 7c37 3bbc 2df1 863e
000001b0: 7e4b 78bc f2d1 afbc a45e 37bc ae81 473d
000001c0: fe17 c33d 14cc 03bd 2867 2f3e 0179 0e3d
000001d0: 5524 993d 3ce2 293e 65b1 e0be 90f4 20ba
000001e0: e88f 883c 2b89 513e a44e 3c3e 4e61 273d
000001f0: b8e6 2abe 421d 183e 81bb f33d 56da 963c
00000200: f752 5cbe 7964 553e ca82 123e 8099 a5bc
00000210: b18b f3bd 991e 793e 0fce 29bd 9fea 5d3e
00000220: 70b3 22be 0237 403e e843 4a3e e071 a1be
00000230: 84a7 51bd c77e 393e 5d90 f2bc 3a31 84bc
00000240: bc5e a33d 1e2a ee3c 99d2 263e 2124 a43e
00000250: 0154 87be ee24 1bbe df22 85bd 3521 08be
00000260: 1b04 923e bdcb 31be 156c 823e 696a e9bc
00000270: e480 d2be e735 643e 30c1 883e 701b d43d
00000280: 971a 95bd 0fdf 033e 11c1 183e ea32 a1be
00000290: 3b6b 88bd 3ae0 8a3e d6c7 81be 38ae 15be
000002a0: 7cff cabe 6481 eb3d 7a70 e4bd d9c4 80be
000002b0: c107 ecbd d6a5 dfbd d355 883e efc8 103d
000002c0: 1d5b 1bbe 7b71 85be c0aa c73c 0d0d 88be
000002d0: 9679 babd a933 a1be 5fed 25be 6fde 453e
000002e0: c22f 88bd 7e38 a53e 0743 92be a3ff c7bd
000002f0: 9044 5ebe 7e3c 903e 5822 be3e 5097 42be
00000300: 5cd2 f83d 98b3 ea3d d02b b13e 4a9a 3a3e
00000310: c8c0 f4bd 36d7 253e dc41 c43e 9c73 033f
00000320: ea7f f43d bc5a 433e e0ab 6b3e 99b3 a13e
00000330: 7016 643e cdb5 8b3e 46d1 8f3e c0c1 1b3e
00000340: b2f3 c13d 7034 ca3e 53ee cb3e c06d 223e
00000350: 91f3 583e b353 3dbd 41eb 753e d14c 493e
00000360: 4aeb 4c3e c8ac 483d 642c f13d 0855 bb3e
00000370: 04b9 8d3e 54a8 a23e 07f0 893e 7177 5d3e
00000380: 8c7d 413e dedc 543e c1ab 443e b136 b8bd
00000390: c769 8e3e a844 6b3e 5ca4 613e c808 993e
000003a0: 5dc1 cb3b a85f 863e 621c 8e3e 7083 953e
000003b0: ea2b 473e 3bcb 923e 374d 0e3e d6c7 be3e
000003c0: 074b a73e f500 293e 6302 4c3d 84eb 843d
000003d0: e732 173e c532 e03b 9fc4 933e 53bf 723e
000003e0: 460d 593e f146 5a3e 55d5 d53d 93ec 0abd
000003f0: 0073 70be 750a 663e 2c19 6c3e 396d bb3d

bias_hh_l0 f4 [256]
-0.27386996 0.23544149 0.44168895 -0.22956643 0.27882707 0.60551834 0.5042339 0.4716885
0.33353052 0.13404374 0.4004201 0.25383073 0.07301861 0.11159497 0.599688 0.56550485
0.2100279 0.37859297 0.14402741 0.1594563 0.4315238 0.12641095 -0.0758631 0.45309082
0.38507295 0.57318884 0.3495758 0.36463505 0.29154485 0.4696631 0.3089921 0.2729255
-0.00458598 0.1628956 0.55537915 0.6152228 -0.27310356 0.33802772 0.2828907 0.142334
0.2844204 0.39119902 -0.015720533 0.22326672 0.38971245 0.38095686 0.53723675 0.2442495
0.41017303 0.3812438 0.43146843 0.26051176 0.17663325 0.16323623 0.4515586 0.6348805
0.17315346 0.5334014 0.3075959 0.00731313 0.4045191 0.4279784 0.34860346 0.35660598
-0.15062734 0.036047544 0.13095249 -0.13662842 -0.15408407 0.21558416 -0.08376307 0.0057414435
-0.068170905 -0.12741993 0.16219898 0.20283684 -0.13002598 0.14280441 -0.06519356 -0.049834814
-0.012898261 -0.21495935 -0.09460459 0.17221795 0.13048376 0.10516566 -0.06524341 -0.07016383
0.10958909 0.0081112385 0.23238376 0.16284283 0.19549096 -0.08267258 0.16263206 0.05612493
-0.12082474 0.04037992 0.2719365 -0.020388063 0.21238068 0.15604842 0.09705258 -0.016535763
0.11576353 0.09412577 0.09341632 0.22725774 0.05881703 0.022352308 0.077444345 0.07412162
0.12136726 0.13285062 0.014743035 0.016653279 0.10892764 0.23005119 -0.34331113 0.19500564
0.10525754 0.36451346 0.16191593 0.062266916 -0.11330944 0.07425217 0.09634423 0.14737402
-0.0007556445 0.098931745 0.08432402 -0.005490345 -0.14105202 0.21659267 -0.009092722 0.33376974
-0.16017123 0.22316292 0.36029866 -0.30747244 -0.20668375 0.1718895 -0.010762229 -0.21280022
0.20548461 0.031005643 0.10031062 0.20738693 -0.14684518 -0.09077348 -0.09015847 -0.11937617
0.17897831 -0.26232824 0.25795385 -0.11259088 -0.24119462 0.24486479 0.2150234 0.18932083
-0.07365581 0.07854877 0.14516552 -0.41564447 -0.050055116 0.31957945 -0.24896054 -0.1492404
-0.3259924 0.10933812 -0.08656716 -0.1675129 -0.3106813 -0.25729528 0.15837614 0.12568326
-0.16490029 -0.08618251 0.11085135 -0.18449692 -0.18155953 -0.27109107 -0.08647249 0.22296311
-0.16283605 0.16551659 -0.28749618 -0.011331836 -0.14921653 0.30076754 0.21149324 -0.08735619
0.13917409 0.06229028 0.1453118 0.19929692 -0.044299066 0.17347163 0.39627507 0.40178934
0.1940277 0.13227193 0.29821596 0.37196457 0.20877337 0.21226107 0.44158998 0.14041218
0.20704012 0.21110272 0.3513666 0.34647524 0.13398601 -0.08294344 0.26392204 0.1469615
0.38580862 0.05898993 0.15471742 0.3589084 0.07056429 0.47653866 0.2513057 0.10118145
0.30243737 0.2451221 0.39035615 -0.06676701 0.30235583 0.029357882 0.23653309 0.43459865
0.042105366 0.25276047 0.21358266 0.33067304 0.27211112 0.34056044 -0.030340478 0.5066641
0.42032552 0.26287022 0.03159916 0.06805763 0.19766383 0.16048175 0.3366546 0.16452435
0.18094002 0.039558288 0.0541633 0.16817474 -0.059920892 0.11468187 0.052882493 0.17866607
00000000: af38 8cbe 9317 713e 0e25 e23e 7613 6bbe
00000010: 6cc2 8e3e 4003 1b3f 7915 013f 2881 f13e
00000020: 83c4 aa3e c342 093e dd03 cd3e 1af6 813e
00000030: c88a 953d e78b e43d 2785 193f edc4 103f
00000040: 8e11 573e f0d6 c13e ec7b 133e 8348 233e
00000050: b0f0 dc3e df71 013e 1d5e 9bbd 85fb e73e
00000060: 4828 c53e 81bc 123f 99fb b23e 72b1 ba3e
00000070: 5e45 953e af77 f03e 3634 9e3e e4bc 8b3e
00000080: fd45 96bb 1bce 263e 542d 0e3f 3e7f 1d3f
00000090: 3bd4 8bbe f811 ad3e 0dd7 903e 01c0 113e
000000a0: 8d9f 913e 3d4b c83e 59c8 80bc 08a0 643e
000000b0: 6488 c73e c70c c33e 5988 093f 8a1c 7a3e
000000c0: 3302 d23e 6332 c33e 6ee9 dc3e cc61 853e
000000d0: 59df 343e 6627 273e b032 e73e 8787 223f
000000e0: 244f 313e ff8c 083f 367d 9d3e fba2 ef3b
000000f0: 211d cf3e fc1f db3e 277c b23e 0f95 b63e
00000100: 0e3e 1abe 97a6 133d 6918 063e 52e8 0bbe
00000110: 37c8 1dbe 18c2 5c3e f98b abbd b822 bc3b
00000120: 309d 8bbd 5f7a 02be 7d17 263e 76b4 4f3e
00000130: 8825 05be 523b 123e 3484 85bd 971f 4cbd
00000140: 3a53 53bc 4e1e 5cbe 0dc0 c1bd e759 303e
00000150: 899d 053e 1861 d73d 569e 85bd 0eb2 8fbd
00000160: 3f70 e03d 00e5 043c 02f6 6d3e 45c0 263e
00000170: c82e 483e 3e50 a9bd 0589 263e 41e3 653d
00000180: f672 f7bd 6a65 253d 433b 8b3e de04 a7bc
00000190: 527a 593e 28cb 1f3e 81c3 c63d 0276 87bc
000001a0: 6e15 ed3d 03c5 c03d 0e51 bf3d 41b6 683e
000001b0: 20ea 703d 301c b73c 249b 9e3d 13cd 973d
000001c0: 668f f83d fe09 083e c58c 713c 756c 883c
000001d0: 7415 df3d 8a92 6b3e 7ac6 afbe 8faf 473e
000001e0: 4491 d73d 82a1 ba3e 4acd 253e 980b 7f3d
000001f0: c80e e8bd 8611 983d 2050 c53d 37e9 163e
00000200: 7216 46ba ba9c ca3d 12b2 ac3d 5ae8 b3bb
00000210: f16f 10be 78ca 5d3e a4f9 14bc dee3 aa3e
00000220: ed03 24be d284 643e 1179 b83e 076d 9dbe
00000230: e8a4 53be cd03 303e 0f54 30bc 4de8 59be
00000240: 8f6a 523e 8cff fd3c a86f cd3d 3d5d 543e
00000250: 955e 16be 72e7 b9bd 01a5 b8bd 7e7b f4bd
00000260: 1746 373e e34f 86be 8712 843e 0c96 e6bd
00000270: b9fb 76be d6bd 7a3e 182f 5c3e 52dd 413e
00000280: dbd8 96bd 2dde a03d 45a6 143e 5acf d4be
00000290: 9806 4dbd eb9f a33e 83ef 7ebe 7ad2 18be
000002a0: 7ae8 a6be aaec df3d 204a b1bd 8088 2bbe
000002b0: 9f11 9fbe 35bc 83be 5b2d 223e 1db3 003e
000002c0: 9fdb 28be 7580 b0bd 0806 e33d c3ec 3cbe
000002d0: beea 39be 73cc 8abe 7d18 b1bd 7150 643e
000002e0: 7ebe 26be 2e7d 293e b332 93be 2aa9 39bc
000002f0: 38cc 18be 34fe 993e af91 583e cde7 b2bd
00000300: a783 0e3e 1824 7f3d 9ecc 143e 7e14 4c3e
00000310: f072 35bd 8ca2 313e 91e4 ca3e 55b7 cd3e
00000320: 33af 463e 4b72 073e c3af 983e 2472 be3e
00000330: b0c8 553e f75a 593e 1518 e23e 36c8 0f3e
00000340: 5302 543e 502b 583e 53e6 b33e 3465 b13e
00000350: a133 093e 40de a9bd ca20 873e 137d 163e
00000360: b588 c53e 6d9f 713d 3e6e 1e3e d8c2 b73e
00000370: 0384 903d e0fc f33e 24ab 803e 3838 cf3d
00000380: 12d9 9a3e 4a01 7b3e c3dc c73e 24bd 88bd
00000390: 62ce 9a3e f17f f03c bb35 723e b783 de3e
000003a0: ad76 2c3d d269 813e 6ab5 5a3e fa4d a93e
000003b0: 2652 8b3e f05d ae3e 988c f8bc bdb4 013f
000003c0: e834 d73e ed96 863e 1f6e 013d cc61 8b3d
000003d0: 6368 4a3e 5455 243e fe5d ac3e 1279 283e
000003e0: 5748 393e df07 223d 56da 5d3d 0036 2c3e
000003f0: 9c6f 75bd 54de ea3d 509b 583d 3df4 363e

weight_ih_l1 f4 [256, 64]
0.70059204 0.15164998 0.18484408 -0.24779794 -0.25988683 0.033505622 -0.67555577 0.4387463
-0.20606732 0.19490023 0.09430852 -0.5302077 0.6772908 0.32685408 0.41391942 -0.28074858
0.07159652 0.3518954 0.28387964 0.11285594 0.15637949 0.12794365 0.30217138 -0.2974182
0.54505354 -0.31664306 0.35799724 -0.1382776 -0.5778278 0.49545273 0.33439463 0.3889753
0.3337701 0.1702579 0.46890348 -0.3577005 -0.43210566 0.058442026 -0.33566725 -0.27704036
0.020301042 1.0089766 -0.1653898 -0.52062094 -0.21619219 -0.6727246 0.43283498 -0.37545425
0.25029102 -0.20054333 -0.10554516 -0.3496555 -0.2941576 -0.031862836 0.72419083 -0.096857235
-0.36960644 0.18437028 -0.20421839 0.12501901 -0.49004856 -0.016152626 0.08502572 -0.30843142
-0.9490529 -0.32313502 -0.013517462 0.91068566 1.1508788 -0.28562203 0.57899326 -0.22169799
-0.3601617 -0.08459777 -0.30331978 0.30317208 0.2506855 -0.0017209515 -0.13864407 0.843006
0.064398065 -0.29954013 -0.1942484 0.26704258 0.13520184 -0.014223112 -0.04220849 -0.09344403
0.16234991 -0.1802679 -0.21018296 0.037608974 -1.0995541 0.0023203315 0.00056885765 -0.029352916
-0.20554996 -0.014204442 -0.051271882 0.041459728 -0.2084897 -0.1083941 -0.15157016 -0.1445717
0.03992896 -0.32961088 -0.42060938 0.17658767 0.29287016 0.21488047 -0.59665453 0.12941791
-0.40099365 -0.0008697182 -0.21229813 0.0022761235 0.24607258 0.09283389 0.021260431 -0.18905906
-0.12034698 -0.06769413 0.08094831 -0.124630295 -0.5556467 0.08361483 -0.009067137 0.02366968
0.039658725 0.53909296 0.57367295 -0.15226768 -0.45505688 0.65446717 -0.37558103 0.5192029
-0.25329545 0.3859818 0.3555674 -0.48736143 0.17370896 0.3949309 0.7100323 -0.19298196
0.35424814 0.3652382 0.670593 0.40370178 -0.23014547 -0.4220489 0.33947343 -0.42281842
0.41832814 -0.44998956 0.27489227 -0.47430128 -0.46642396 0.26469293 0.47525582 0.37648648
-0.23986548 0.22496082 0.44637263 -0.2709246 -0.28264776 0.39786774 -0.49487814 -0.48780993
-0.4175646 0.53987974 -0.14861618 -0.5722453 -0.42969066 -0.4938088 0.3062324 -0.5192034
0.2925011 -0.4506692 0.33654004 -0.5124621 -0.562322 -0.22101146 0.6180035 0.3536815
-0.29975805 0.4182582 -0.46125147 0.19806963 -0.40362838 0.5952485 0.47205153 -0.61073035
0.3986332 0.47834745 -0.2920612 -0.689401 -0.69325626 0.48113948 -0.5337267 -0.91472584
0.121237636 -0.13718395 -0.21361546 -0.06265455 0.1587099 -0.2347486 0.30031136 -0.36091062
0.34704873 -0.37905315 0.26559418 0.026066775 -0.29336187 -0.15459256 -0.08492716 -0.19224237
-0.13592961 0.14632918 -0.09742541 -0.3472693 0.5862863 -0.6063842 0.0360686 0.124543644
-0.5963021 -0.015751697 -0.06738393 -0.36353528 0.16935737 0.80512327 -0.62482953 0.2144078
-0.60598594 -0.20380227 -0.8976909 -0.3074214 -0.7098725 -1.290214 0.34543785 -0.1250922
-0.077867016 -0.60775465 -0.37944674 -0.28804898 -0.42159715 -0.16404523 0.6598906 0.62104744
-0.08874393 -0.69838405 -0.22162169 0.5512152 0.16895021 0.37562177 0.026448773 0.36791283
00000000: 005a 333f 224a 1b3e c447 3d3e bebe 7dbe
00000010: e30f 85be 313d 093d 39f1 2cbf 5ba3 e03e
00000020: 5003 53be ed93 473e d324 c13d b1bb 07bf
00000030: ee62 2d3f 6b59 a73e 3fed d33e 47be 8fbe
00000040: 32a1 923d a22b b43e ac58 913e 0421 e73d
00000050: f221 203e a903 033e 35b6 9a3e 3347 98be
00000060: a188 0b3f 0a1f a2be 6a4b b73e a598 0dbe
00000070: 86ec 13bf fbab fd3e c635 ab3e c527 c73e
00000080: eae3 aa3e 1658 2e3e 1e14 f03e 8524 b7be
00000090: f43c ddbe e860 6f3d 94dc abbe 3cd8 8dbe
000000a0: 5f4e a63c 2526 813f f25b 29be 6a47 05bf
000000b0: 7c61 5dbe ae37 2cbf 8c9c dd3e 8a3b c0be
000000c0: 2526 803e 3b5b 4dbe 1028 d8bd 0c06 b3be
000000d0: d39b 96be 9b82 02bd 9264 393f 165d c6bd
000000e0: 0e3d bdbe 90cb 3c3e a01e 51be fc04 003e
000000f0: a5e7 fabe 8352 84bc f721 ae3d b9ea 9dbe
00000100: 21f5 72bf f471 a5be 5878 5dbc b222 693f
00000110: ff4f 933f 0d3d 92be e738 143f cc04 63be
00000120: 1d67 b8be 9841 adbd bb4c 9bbe 5f39 9b3e
00000130: da59 803e 8d91 e1ba b6f8 0dbe 3ecf 573f
00000140: 22e3 833d 535d 99be 0de9 46be ceb9 883e
00000150: 5a72 0a3e 0e08 69bc cfe2 2cbd 955f bfbd
00000160: 0e3f 263e 2698 38be 343a 57be de0b 1a3d
00000170: 30be 8cbf b410 183b 641f 153a 8775 f0bc
00000180: b07b 52be bfb9 68bc 7702 52bd add1 293d
00000190: 537e 55be bafd ddbd 3535 1bbe 9b0a 14be
000001a0: 8d8c 233d c2c2 a8be 1d5a d7be 66d3 343e
000001b0: 14f3 953e a009 5c3e 5abe 18bf 2186 043e
000001c0: 0a4f cdbe cdfd 63ba ae64 59be 042b 153b
000001d0: 73fa 7b3e b21f be3d 5b2a ae3c b398 41be
000001e0: 7a78 f6bd 38a3 8abd 3ac8 a53d 2b3e ffbd
000001f0: dd3e 0ebf 413e ab3d 548e 14bc ebe6 c13c
00000200: 3071 223d ff01 0a3f 3bdc 123f 0fec 1bbe
00000210: 37fd e8be 298b 273f 284c c0be 7bea 043f
00000220: f1af 81be 689f c53e ee0c b63e 7087 f9be
00000230: c3e0 313e 6234 ca3e adc4 353f 109d 45be
00000240: 0360 b53e 8000 bb3e fcab 2b3f 00b2 ce3e
00000250: 41ab 6bbe cb16 d8be 76cf ad3e a87b d8be
00000260: 1b2f d63e 0865 e6be aebe 8c3e 9ed7 f2be
00000270: 1fcf eebe d585 873e bb54 f33e d6c2 c03e
00000280: 4c9f 75be 215c 663e f48a e43e a1b6 8abe
00000290: 35b7 90be 52b5 cb3e ab60 fdbe 39c2 f9be
000002a0: 07cb d5be 8f35 0a3f d72e 18be ab7e 12bf
000002b0: 6a00 dcbe 82d4 fcbe 7eca 9c3e 84ea 04bf
000002c0: b4c2 953e 1dbe e6be fa4e ac3e b730 03bf
000002d0: 56f4 0fbf d450 62be 7a35 1e3f be15 b53e
000002e0: e379 99be f025 d63e 2729 ecbe c4d2 4a3e
000002f0: 61a8 cebe 3562 183f bdb0 f13e d358 1cbf
00000300: a719 cc3e f5e9 f43e 0c89 95be 957c 30bf
00000310: 3e79 31bf ea57 f63e 50a2 08bf 792b 6abf
00000320: 704b f83d f379 0cbe 03be 5abe 0751 80bd
00000330: d984 223e f061 70be 69c2 993e 47c9 b8be
00000340: 5fb0 b13e 4113 c2be f6fb 873e fd89 d53c
00000350: 8733 96be 834d 1ebe 4aee adbd 2fdb 44be
00000360: 2231 0bbe 51d7 153e f986 c7bd 48cd b1be
00000370: dc16 163f ff3b 1bbf abbc 133d bd10 ff3d
00000380: 41a7 18bf b409 81bc 9600 8abd 4c21 babe
00000390: 056c 2d3e 8f1c 4e3f d4f4 1fbf b88d 5b3e
000003a0: e521 1bbf 8bb1 50be 12cf 65bf 5666 9dbe
000003b0: 34ba 35bf bb25 a5bf 3bdd b03e 2b18 00be
000003c0: be78 9fbd cf95 1bbf d846 c2be 287b 93be
000003d0: 95db d7be 79fb 27be 97ee 283f f7fc 1e3f
000003e0: 61bf b5bd 4cc9 32bf ccf0 62be 701c 0d3f
000003f0: 4901 2d3e 7f51 c03e 19ab d83c 125f bc3e

weight_hh_l1 f4 [256, 64]
-0.010094252 -0.20807153 0.0101923905 -0.15931416 0.09449947 0.103060715 -0.2497654 0.092754
0.18087633 0.18678382 0.37044984 0.05206593 -0.15575214 -0.03825407 -0.1817823 0.20606063
0.06064832 -0.1891862 0.694255 -0.19164798 -0.018170862 0.05876567 -0.23919117 0.12141103
0.024401657 0.013034648 0.0114835715 0.5675356 -0.44167966 0.2290866 -0.0337479 -0.1033784
0.30708322 0.42798582 0.075666815 -0.19080833 0.24229683 -0.15742953 -0.40240252 -0.4648275
-0.8688949 -0.22838701 -0.43207127 0.3822755 -0.14253682 -0.20569634 -0.13125066 -0.014611354
-0.11772757 0.076707184 -0.01950872 0.27477834 0.117475756 -0.013027355 -0.10611336 -0.21924609
-0.1811317 -0.039060038 -0.17815274 -0.2834602 -0.14355433 -0.028698714 -0.08653444 0.03279524
-0.70382124 1.3226547 0.162036 -0.4146945 0.5793951 0.08707919 -1.0323665 0.17494243
-0.5151617 -1.0168687 -0.14918813 0.28457883 0.03149802 -0.49709782 0.8306844 0.7896232
0.61187917 -0.35105357 0.42853603 0.21901369 0.40679562 0.6151734 -0.8402614 0.11457299
-0.018054152 -0.17378823 -0.04746274 0.43363103 -0.95691204 -0.5125921 -0.6539977 0.54047143
0.36261943 0.92491716 0.22461937 -0.66455257 0.26533258 0.6263938 -0.9747511 0.25562403
-0.5343946 0.05557578 -0.5013033 1.1273292 -0.62314284 -0.19757868 0.26023033 -0.04428296
0.2687241 0.671382 0.49962682 0.67516947 -0.3309866 0.05746268 0.6330976 -0.10186654
0.53489274 0.11262215 -0.21908791 -0.43561053 -0.45399913 -0.43427488 -0.4566957 0.124108985
-0.296284 0.09187528 0.20494427 -0.0749406 0.5204035 0.36979908 -0.15017012 -0.08628226
0.62242407 0.17195791 0.3938693 -0.17537759 0.14516477 -0.20489725 0.12518445 0.42918146
-0.17885071 0.0027855264 0.50114053 -0.49020112 -0.0771226 0.51689214 -0.17311743 0.073984
-0.021503903 -0.15727638 0.051612593 0.6957604 -0.2813474 0.28616792 -0.2627746 -0.16133264
0.045518186 0.1384301 0.0022630326 -0.048829205 0.20441516 0.046300687 -0.7418981 -0.5687936
-0.74432254 0.16324109 -0.43228406 0.49684379 -0.2735498 0.15671724 -0.29885495 -0.08160032
0.12306365 0.3154358 0.21365634 0.15417592 0.08424461 -0.10880535 0.045596223 -0.42807457
-0.6091113 -0.0074826796 -0.17183125 -0.36279374 -0.2390885 0.27137396 0.0055707768 0.04593215
-1.1608886 0.37984827 -0.11898514 -0.6595875 1.108343 0.16626455 0.9505024 -0.061104167
0.15231965 0.7630503 0.16478647 0.5926662 0.21796103 -0.112013415 -0.066341355 0.6568799
-0.20533425 -0.06908364 0.19829689 -0.5759951 0.073869094 1.3327758 -0.76274794 0.3300483
0.22558475 0.34314087 -0.053811636 0.42869955 0.29178342 -0.4995381 -0.5140214 0.10814857
0.6722923 0.2689256 0.27041787 0.57829124 -0.22006625 -0.15662767 0.32128936 -0.31470802
-0.60504997 -0.20207582 0.042092223 0.8963433 -1.6281251 0.9651241 0.41446966 -0.85567063
-0.93837535 0.57944286 0.07137326 -0.12687384 -0.044848472 -0.53833705 -0.6867306 0.118646435
-1.5719706 0.32086772 0.868997 -0.13313983 -0.5867812 0.031085717 0.53356504 -0.02018575
00000000: 5d62 25bc b410 55be fcfd 263c 4023 23be
00000010: f088 c13d 7f11 d33d 80c2 7fbe cff5 bd3d
00000020: a537 393e 4244 3f3e 9aab bd3e 1643 553d
00000030: 7d7d 1fbe 4db0 1cbd 2425 3abe 8f01 533e
00000040: 5f6a 783d 07ba 41be b2ba 313f 5e3f 44be
00000050: 0fdb 94bc 45b4 703d 88ee 74be 59a6 f83d
00000060: fce5 c73c 478f 553c 9725 3c3c 034a 113f
00000070: d623 e2be ad95 6a3e 3d3b 0abd 0eb8 d3bd
00000080: 033a 9d3e f520 db3e 34f7 9a3d 4263 43be
00000090: a91c 783e 3535 21be b407 cebe dffd edbe
000000a0: e56f 5ebf 49de 69be 7238 ddbe 9db9 c33e
000000b0: 2cf5 11be 10a2 52be 9366 06be 7664 6fbc
000000c0: 271b f1bd a818 9d3d c0d0 9fbc bfaf 8c3e
000000d0: 2197 f03d b070 55bc f651 d9bd 0c82 60be
000000e0: 977a 39be 6bfd 1fbd ac6d 36be b221 91be
000000f0: e8ff 12be 9119 ebbc f838 b1bd 4d54 063d
00000100: a12d 34bf c04c a93f c4ec 253e d652 d4be
00000110: 3d53 143f 9356 b23d 9624 84bf 1c24 333e
00000120: a3e1 03bf c128 82bf c6c4 18be 51b4 913e
00000130: 1104 013d 9b83 febe bca7 543f bf24 4a3f
00000140: 1da4 1c3f 4bbd b3be 1369 db3e 2045 603e
00000150: 8447 d03e 017c 1d3f 5f1b 57bf 3ea5 ea3d
00000160: 4de6 93bc 8bf5 31be 4a68 42bd e304 de3e
00000170: 30f8 74bf 3c39 03bf 656c 27bf 565c 0a3f
00000180: 41a9 b93e 5fc7 6c3f 9f02 663e 1e20 2abf
00000190: acd9 873e 585b 203f 4a89 79bf 27e1 823e
000001a0: 16ce 08bf 6ea3 633d 6a55 00bf 534c 903f
000001b0: 4a86 1fbf 1152 4abe e93c 853e 0d62 35bd
000001c0: 3596 893e b1df 2b3f 16cf ff3e e8d7 2c3f
000001d0: 1377 a9be fd5d 6b3d af12 223f 689f d0bd
000001e0: bbee 083f 71a6 e63d 9558 60be 5808 dfbe
000001f0: 9372 e8be 4759 debe 05d4 e9be da2c fe3d
00000200: 89b2 97be 1b29 bc3d e9dc 513e 757a 99bd
00000210: 2a39 053f 4e56 bd3e 32c6 19be c1b4 b0bd
00000220: 2f57 1f3f bc15 303e 3da9 c93e 2f96 33be
00000230: 13a6 143e 96d0 51be 5a30 003e acbd db3e
00000240: a424 37be 618d 363b bf4a 003f a4fb fabe
00000250: 74f2 9dbd 0b53 043f b245 31be ec84 973d
00000260: f428 b0bc 0f0d 21be ba67 533d 5b1d 323f
00000270: c40c 90be 9a84 923e 648a 86be 6234 25be
00000280: 4771 3a3d 9fc0 0d3e 634f 143b 2201 48bd
00000290: 3552 513e caa5 3d3d 09ed 3dbf 759c 11bf
000002a0: ec8b 3ebf ac28 273e 5654 ddbe 4f62 fe3e
000002b0: b80e 8cbe 7c7a 203e 8403 99be 121e a7bd
000002c0: cc08 fc3d cd80 a13e bac8 5a3e 4be0 1d3e
000002d0: 7088 ac3d 57d5 debd 1bc3 3a3d 972c dbbe
000002e0: b8ee 1bbf 4431 f5bb 88f4 2fbe 1ac0 b9be
000002f0: 9ed3 74be 87f1 8a3e 108b b63b 5a23 3c3d
00000300: ff97 94bf 797b c23e 7bae f3bd bada 28bf
00000310: 2fde 8d3f 4141 2a3e 2054 733f 5d48 7abd
00000320: aff9 1b3e 4457 433f c9bd 283e f9b8 173f
00000330: 2d31 5f3e 4a67 e5bd fadd 87bd 4829 283f
00000340: 2443 52be b97b 8dbd 570e 4b3e 6a74 13bf
00000350: ae48 973d 6698 aa3f 7343 43bf 17fc a83e
00000360: b0ff 663e 29b0 af3e 9769 5cbd 827e db3e
00000370: a364 953e 75c3 ffbe e896 03bf ff7c dd3d
00000380: 591b 2c3f 9eb0 893e 3674 8a3e e50a 143f
00000390: 0c59 61be 0163 20be 0a80 a43e 6921 a1be
000003a0: 8ee4 1abf f7ec 4ebe e568 2c3d c176 653f
000003b0: 6766 d0bf 5f12 773f 5e35 d43e 3b0d 5bbf
000003c0: 5e39 70bf 5e56 143f 252c 923d 37eb 01be
000003d0: 08b3 37bd 75d0 09bf 94cd 2fbf e7fc f23d
000003e0: 5536 c9bf c648 a43e 9676 5e3f cf55 08be
000003f0: 4b37 16bf 79a7 fe3c b897 083f 965c a5bc

bias_ih_l1 f4 [256]
0.107599095 0.10465525 0.3195678 -0.042433135 0.10945836 0.01683837 0.17638366 0.21265553
0.4465395 0.06498486 0.22350407 -0.093189284 0.0023296431 0.3299141 0.05506986 0.036369618
0.062065445 0.060197722 0.14126012 0.17761464 0.33932382 0.6550857 -0.022593575 -0.1733943
0.17647426 -0.13032104 0.10803705 0.25745624 0.1760904 0.16780393 0.24415143 -0.07488006
-0.028108979 0.09568217 0.18588565 0.1174238 0.04877389 0.12751421 0.100060694 -0.02311593
0.16576374 0.16477562 -0.03426994 -0.06715437 0.11613712 0.11073029 0.12836066 0.31703523
-0.11625128 -0.009971032 0.32673913 -0.014663836 0.020919645 -0.049713284 0.4082657 0.14928053
0.066362515 -0.010417224 -0.09071723 0.042600214 0.073758565 0.22289069 0.22122802 0.07390615
-0.05391507 -0.02397909 0.25048926 0.008953703 -0.11600377 0.17120762 -0.23148903 0.0068870387
0.10165834 -0.11445014 -0.0037654461 -0.10284674 0.028650576 0.19081472 0.118658066 0.062943675
0.22893918 -0.060546298 0.32824895 -0.0171564 0.025804196 0.025344776 -0.17718354 0.30974343
0.11789368 0.062374618 0.1454413 0.12920405 -0.15504074 -0.13180558 0.14863741 -0.09015857
0.04535832 -0.084732495 0.1740817 0.0252173 -0.06027057 -0.0005798269 0.044486582 0.10465514
-0.07721946 0.0017700593 -0.0048127384 -0.24666333 0.1413604 -0.07783176 -0.056438323 -0.12589884
0.009396212 -0.041765474 0.15824665 0.026099533 0.07484317 -0.1252588 0.13160127 0.054144382
-0.10794471 0.04555352 -0.013989921 -0.13921833 -0.030335335 0.12119712 -0.14183198 0.0969131
-0.015002501 0.017902127 0.047461104 -0.116907656 -0.13334322 0.036762446 -0.12198873 0.058579106
0.0996789 -0.104606 -0.01353767 0.057848513 0.01867098 -0.20613278 0.0035814636 0.07545974
-0.071882136 -0.19842568 0.32807317 -0.17547409 -0.079909585 0.031292904 0.08064515 -0.12804547
-0.11700459 0.008856081 0.089080475 0.15036654 -0.2051247 -0.015471534 -0.12219332 -0.13443713
0.058446027 -0.06982895 0.13251773 -0.08631174 0.020543465 -0.005980191 -0.1807296 -0.06665431
-0.28529364 -0.10590004 -0.1187871 0.15485947 -0.14208508 0.09159794 -0.12675606 -0.105729654
0.06834624 0.17729995 0.117738165 0.17578886 0.16370293 -0.08127508 -0.3561611 -0.062633015
-0.032558847 0.077054754 0.027574085 -0.17848629 -0.07649518 0.18126033 0.12990206 0.033260945
-0.015345419 0.1607142 0.05129464 -0.09385189 0.08857133 0.102065325 0.038553033 0.08470715
0.05430017 0.03728251 0.08636195 0.012635517 0.23491514 -0.09388631 -0.04831101 0.3748015
0.17809238 -0.12254195 0.09508889 0.10568487 -0.11076059 0.3151565 0.09013548 0.07072818
0.35269955 0.088366896 -0.19121331 0.35127345 0.15177473 0.1569148 0.065161474 -0.24823092
0.018977389 0.116202764 0.029771442 0.16121577 -0.10770151 0.031225592 0.17231011 0.15216741
0.254861 0.49045435 -0.095867135 0.30817598 -0.2145893 -0.097000234 0.20503569 0.03826791
0.11889962 0.10572457 0.13978289 -0.14057651 0.028658714 0.071767285 -0.17408338 -0.13965924
0.3430594 0.26883668 -0.0054248646 0.036397878 0.21835433 -0.32947212 -0.0020814622 0.057562426
00000000: ea5c dc3d 7e55 d63d 649e a33e 5ece 2dbd
00000010: b42b e03d 9ff0 893c eb9d 343e 5fc2 593e
00000020: d3a0 e43e c816 853d 40de 643e 06da bebd
00000030: edac 183b 80ea a83e ef90 613d 4ff8 143d
00000040: 5638 7e3d e391 763d 7ea6 103e 9de0 353e
00000050: dabb ad3e b2b3 273f 2916 b9bc 468e 31be
00000060: abb5 343e e172 05be 8742 dd3d 4ed1 833e
00000070: 0b51 343e cbd4 2b3e d502 7a3e b85a 99bd
00000080: cd44 e6bc 03f5 c33d cf58 3e3e e47b f03d
00000090: 21c7 473d 1693 023e 9fec cc3d 9e5d bdbc
000000a0: f8bd 293e f1ba 283e a35e 0cbd 3b88 89bd
000000b0: 4cd9 ed3d 90c6 e23d fa70 033e 7152 a23e
000000c0: 2715 eebd 8a5d 23bc 5a4a a73e 9640 70bc
000000d0: ad5f ab3c 28a0 4bbd 3408 d13e ffdc 183e
000000e0: 12e9 873d 01ad 2abc f5c9 b9bd 907d 2e3d
000000f0: bb0e 973d 753d 643e 9989 623e 1c5c 973d
00000100: 0cd6 5cbd cc6f c4bc 2140 803e 8db2 123c
00000110: 6293 edbd 0d51 2f3e 760b 6dbe abac e13b
00000120: 3f32 d03d d664 eabd b4c5 76bb 50a1 d2bd
00000130: 9db4 ea3c ef64 433e 0003 f33d 9de8 803d
00000140: 086f 6a3e 65ff 77bd 3f10 a83e 948b 8cbc
00000150: 5263 d33c d99f cf3c 9a6f 35be b196 9e3e
00000160: 3e72 f13d 877c 7f3d 90ee 143e 114e 043e
00000170: 00c3 1ebe 0bf8 06be 6834 183e 0ea5 b8bd
00000180: a5c9 393d 3b88 adbd 7942 323e 8394 ce3c
00000190: 46de 76bd 86ff 17ba 9037 363d 6f55 d63d
000001a0: 3c25 9ebd 5601 e83a 2db4 9dbb 5095 7cbe
000001b0: c8c0 103e 4266 9fbd df2b 67bd a0eb 00be
000001c0: 92f2 193c 4612 2bbd 690b 223e b0ce d53c
000001d0: 6047 993d d843 00be 7cc2 063e 80c6 5d3d
000001e0: 1e12 ddbd 5496 3a3d fb35 65bc 408f 0ebe
000001f0: cf81 f8bc 3236 f83d 673c 11be 607a c63d
00000200: 0dcd 75bc 7ba7 923c 9366 423d 486d efbd
00000210: 208b 08be 3894 163d 3ad5 f9bd a5f0 6f3d
00000220: 7324 cc3d ac3b d6bd 1acd 5dbc 90f2 6c3d
00000230: e2f3 983c 7914 53be fdb6 6a3b a38a 9a3d
00000240: f136 93bd 1a30 4bbe 35f9 a73e 7baf 33be
00000250: a3a7 a3bd fd2c 003d 4929 a53d 5a1e 03be
00000260: 1aa0 efbd 1919 113c d36f b63d b0f9 193e
00000270: 360c 52be 517c 7dbc 7e40 fabd e3a9 09be
00000280: 1a65 6f3d 7b02 8fbd bab2 073e 36c4 b0bd
00000290: c54a a83c 7af5 c3bb 2e11 39be 0e82 88bd
000002a0: 0212 92be 1fe2 d8bd a746 f3bd 7b93 1e3e
000002b0: c07e 11be b397 bb3d 57cc 01be ca88 d8bd
000002c0: 1df9 8b3d 1e8e 353e b520 f13d ff01 343e
000002d0: bea1 273e 8d73 a6bd bf5a b6be bd45 80bd
000002e0: 6d5c 05bd e2ce 9d3d 0ce3 e13c 1cc5 36be
000002f0: 81a9 9cbd 4f9c 393e 0c05 053e a13c 083d
00000300: 5a6b 7bbc 4392 243e 541a 523d 6b35 c0bd
00000310: e364 b53d a007 d13d c9e9 1d3d f17a ad3d
00000320: db69 5e3d 8cb5 183d 89de b03d 3305 4f3c
00000330: 988d 703e 7747 c0bd c4e1 45bd fbe5 bf3e
00000340: d95d 363e 46f7 fabd f7bd c23d 4f71 d83d
00000350: 73d6 e2bd 315c a13e f398 b83d f0d9 903d
00000360: 0995 b43e b4f9 b43d 6ccd 43be 1dda b33e
00000370: d66a 1b3e 46ae 203e 6173 853d 3f30 7ebe
00000380: 7876 9b3c b7fb ed3d 3de3 f33c bf15 253e
00000390: 9c92 dcbd d0cc ff3c 1072 303e c6d1 1b3e
000003a0: 247d 823e d51c fb3e fd55 c4bd 3ec9 9d3e
000003b0: 4cbd 5bbe 0fa8 c6bd e0f4 513e d0be 1c3d
000003c0: a581 f33d 2086 d83d 3f23 0f3e 4af3 0fbe
000003d0: aec5 ea3c bafa 923d ea42 32be d502 0fbe
000003e0: 7ba5 af3e f6a4 893e 10c3 b1bb f115 153d
000003f0: 4798 5f3e 92b0 a8be 2469 08bb 94c6 6b3d
